2018-09-12 14:07:03,960 - INFO - ResNet(
  (block1): MixedConvWithReLU(
    (ops): ModuleList(
      (0): QuantizedOp(
        (op): Sequential(
          (0): Sequential(
            (0): Conv2d(3, 16, kernel_size=(3, 3), stride=(1, 1), padding=(1, 1), bias=False)
            (1): BatchNorm2d(16, eps=1e-05, momentum=0.1, affine=True, track_running_stats=True)
          )
          (1): ReLU(inplace)
        )
      )
    )
  )
  (block2): BasicBlock(
    (block1): MixedConvWithReLU(
      (ops): ModuleList(
        (0): QuantizedOp(
          (op): Sequential(
            (0): Sequential(
              (0): Conv2d(16, 16, kernel_size=(3, 3), stride=(1, 1), padding=(1, 1), bias=False)
              (1): BatchNorm2d(16, eps=1e-05, momentum=0.1, affine=True, track_running_stats=True)
            )
            (1): ReLU(inplace)
          )
        )
      )
    )
    (block2): MixedConvWithReLU(
      (ops): ModuleList(
        (0): QuantizedOp(
          (op): Sequential(
            (0): Sequential(
              (0): Conv2d(16, 16, kernel_size=(3, 3), stride=(1, 1), padding=(1, 1), bias=False)
              (1): BatchNorm2d(16, eps=1e-05, momentum=0.1, affine=True, track_running_stats=True)
            )
            (1): ReLU(inplace)
          )
        )
      )
    )
  )
  (block3): BasicBlock(
    (block1): MixedConvWithReLU(
      (ops): ModuleList(
        (0): QuantizedOp(
          (op): Sequential(
            (0): Sequential(
              (0): Conv2d(16, 16, kernel_size=(3, 3), stride=(1, 1), padding=(1, 1), bias=False)
              (1): BatchNorm2d(16, eps=1e-05, momentum=0.1, affine=True, track_running_stats=True)
            )
            (1): ReLU(inplace)
          )
        )
      )
    )
    (block2): MixedConvWithReLU(
      (ops): ModuleList(
        (0): QuantizedOp(
          (op): Sequential(
            (0): Sequential(
              (0): Conv2d(16, 16, kernel_size=(3, 3), stride=(1, 1), padding=(1, 1), bias=False)
              (1): BatchNorm2d(16, eps=1e-05, momentum=0.1, affine=True, track_running_stats=True)
            )
            (1): ReLU(inplace)
          )
        )
      )
    )
  )
  (block4): BasicBlock(
    (block1): MixedConvWithReLU(
      (ops): ModuleList(
        (0): QuantizedOp(
          (op): Sequential(
            (0): Sequential(
              (0): Conv2d(16, 16, kernel_size=(3, 3), stride=(1, 1), padding=(1, 1), bias=False)
              (1): BatchNorm2d(16, eps=1e-05, momentum=0.1, affine=True, track_running_stats=True)
            )
            (1): ReLU(inplace)
          )
        )
      )
    )
    (block2): MixedConvWithReLU(
      (ops): ModuleList(
        (0): QuantizedOp(
          (op): Sequential(
            (0): Sequential(
              (0): Conv2d(16, 16, kernel_size=(3, 3), stride=(1, 1), padding=(1, 1), bias=False)
              (1): BatchNorm2d(16, eps=1e-05, momentum=0.1, affine=True, track_running_stats=True)
            )
            (1): ReLU(inplace)
          )
        )
      )
    )
  )
  (block5): BasicBlock(
    (block1): MixedConvWithReLU(
      (ops): ModuleList(
        (0): QuantizedOp(
          (op): Sequential(
            (0): Sequential(
              (0): Conv2d(16, 32, kernel_size=(3, 3), stride=(2, 2), padding=(1, 1), bias=False)
              (1): BatchNorm2d(32, eps=1e-05, momentum=0.1, affine=True, track_running_stats=True)
            )
            (1): ReLU(inplace)
          )
        )
      )
    )
    (block2): MixedConvWithReLU(
      (ops): ModuleList(
        (0): QuantizedOp(
          (op): Sequential(
            (0): Sequential(
              (0): Conv2d(32, 32, kernel_size=(3, 3), stride=(1, 1), padding=(1, 1), bias=False)
              (1): BatchNorm2d(32, eps=1e-05, momentum=0.1, affine=True, track_running_stats=True)
            )
            (1): ReLU(inplace)
          )
        )
      )
    )
    (downsample): MixedConv(
      (ops): ModuleList(
        (0): QuantizedOp(
          (op): Sequential(
            (0): Conv2d(16, 32, kernel_size=(1, 1), stride=(2, 2), bias=False)
            (1): BatchNorm2d(32, eps=1e-05, momentum=0.1, affine=True, track_running_stats=True)
          )
        )
      )
    )
  )
  (block6): BasicBlock(
    (block1): MixedConvWithReLU(
      (ops): ModuleList(
        (0): QuantizedOp(
          (op): Sequential(
            (0): Sequential(
              (0): Conv2d(32, 32, kernel_size=(3, 3), stride=(1, 1), padding=(1, 1), bias=False)
              (1): BatchNorm2d(32, eps=1e-05, momentum=0.1, affine=True, track_running_stats=True)
            )
            (1): ReLU(inplace)
          )
        )
      )
    )
    (block2): MixedConvWithReLU(
      (ops): ModuleList(
        (0): QuantizedOp(
          (op): Sequential(
            (0): Sequential(
              (0): Conv2d(32, 32, kernel_size=(3, 3), stride=(1, 1), padding=(1, 1), bias=False)
              (1): BatchNorm2d(32, eps=1e-05, momentum=0.1, affine=True, track_running_stats=True)
            )
            (1): ReLU(inplace)
          )
        )
      )
    )
  )
  (block7): BasicBlock(
    (block1): MixedConvWithReLU(
      (ops): ModuleList(
        (0): QuantizedOp(
          (op): Sequential(
            (0): Sequential(
              (0): Conv2d(32, 32, kernel_size=(3, 3), stride=(1, 1), padding=(1, 1), bias=False)
              (1): BatchNorm2d(32, eps=1e-05, momentum=0.1, affine=True, track_running_stats=True)
            )
            (1): ReLU(inplace)
          )
        )
      )
    )
    (block2): MixedConvWithReLU(
      (ops): ModuleList(
        (0): QuantizedOp(
          (op): Sequential(
            (0): Sequential(
              (0): Conv2d(32, 32, kernel_size=(3, 3), stride=(1, 1), padding=(1, 1), bias=False)
              (1): BatchNorm2d(32, eps=1e-05, momentum=0.1, affine=True, track_running_stats=True)
            )
            (1): ReLU(inplace)
          )
        )
      )
    )
  )
  (block8): BasicBlock(
    (block1): MixedConvWithReLU(
      (ops): ModuleList(
        (0): QuantizedOp(
          (op): Sequential(
            (0): Sequential(
              (0): Conv2d(32, 64, kernel_size=(3, 3), stride=(2, 2), padding=(1, 1), bias=False)
              (1): BatchNorm2d(64, eps=1e-05, momentum=0.1, affine=True, track_running_stats=True)
            )
            (1): ReLU(inplace)
          )
        )
      )
    )
    (block2): MixedConvWithReLU(
      (ops): ModuleList(
        (0): QuantizedOp(
          (op): Sequential(
            (0): Sequential(
              (0): Conv2d(64, 64, kernel_size=(3, 3), stride=(1, 1), padding=(1, 1), bias=False)
              (1): BatchNorm2d(64, eps=1e-05, momentum=0.1, affine=True, track_running_stats=True)
            )
            (1): ReLU(inplace)
          )
        )
      )
    )
    (downsample): MixedConv(
      (ops): ModuleList(
        (0): QuantizedOp(
          (op): Sequential(
            (0): Conv2d(32, 64, kernel_size=(1, 1), stride=(2, 2), bias=False)
            (1): BatchNorm2d(64, eps=1e-05, momentum=0.1, affine=True, track_running_stats=True)
          )
        )
      )
    )
  )
  (block9): BasicBlock(
    (block1): MixedConvWithReLU(
      (ops): ModuleList(
        (0): QuantizedOp(
          (op): Sequential(
            (0): Sequential(
              (0): Conv2d(64, 64, kernel_size=(3, 3), stride=(1, 1), padding=(1, 1), bias=False)
              (1): BatchNorm2d(64, eps=1e-05, momentum=0.1, affine=True, track_running_stats=True)
            )
            (1): ReLU(inplace)
          )
        )
      )
    )
    (block2): MixedConvWithReLU(
      (ops): ModuleList(
        (0): QuantizedOp(
          (op): Sequential(
            (0): Sequential(
              (0): Conv2d(64, 64, kernel_size=(3, 3), stride=(1, 1), padding=(1, 1), bias=False)
              (1): BatchNorm2d(64, eps=1e-05, momentum=0.1, affine=True, track_running_stats=True)
            )
            (1): ReLU(inplace)
          )
        )
      )
    )
  )
  (block10): BasicBlock(
    (block1): MixedConvWithReLU(
      (ops): ModuleList(
        (0): QuantizedOp(
          (op): Sequential(
            (0): Sequential(
              (0): Conv2d(64, 64, kernel_size=(3, 3), stride=(1, 1), padding=(1, 1), bias=False)
              (1): BatchNorm2d(64, eps=1e-05, momentum=0.1, affine=True, track_running_stats=True)
            )
            (1): ReLU(inplace)
          )
        )
      )
    )
    (block2): MixedConvWithReLU(
      (ops): ModuleList(
        (0): QuantizedOp(
          (op): Sequential(
            (0): Sequential(
              (0): Conv2d(64, 64, kernel_size=(3, 3), stride=(1, 1), padding=(1, 1), bias=False)
              (1): BatchNorm2d(64, eps=1e-05, momentum=0.1, affine=True, track_running_stats=True)
            )
            (1): ReLU(inplace)
          )
        )
      )
    )
  )
  (avgpool): AvgPool2d(kernel_size=8, stride=8, padding=0)
  (fc): MixedLinear(
    (ops): ModuleList(
      (0): QuantizedOp(
        (op): Linear(in_features=64, out_features=10, bias=True)
      )
    )
  )
  (_criterion): UniqLoss(
    (search_loss): CrossEntropyLoss()
    (bops_base_func): Tanh()
  )
)
2018-09-12 14:07:03,966 - INFO - =============================================
2018-09-12 14:07:03,967 - INFO - Top [2] quantizations per layer:
2018-09-12 14:07:03,968 - INFO - =============================================
2018-09-12 14:07:03,969 - INFO - Layer:[0]  Idx:[0]  w:[1.00000]  alpha:[1.00000]  bitwidth:[8]  act_bitwidth:[8]  ||  
…
