2018-09-12 15:35:58,834 - INFO - TinyNet(
  (features): Sequential(
    (0): MixedConvWithReLU(
      (ops): ModuleList(
        (0): QuantizedOp(
          (op): Sequential(
            (0): Sequential(
              (0): Conv2d(3, 16, kernel_size=(3, 3), stride=(2, 2), padding=(1, 1), bias=False)
              (1): BatchNorm2d(16, eps=1e-05, momentum=0.1, affine=True, track_running_stats=True)
            )
            (1): ReLU(inplace)
          )
        )
        (1): QuantizedOp(
          (op): Sequential(
            (0): Sequential(
              (0): Conv2d(3, 16, kernel_size=(3, 3), stride=(2, 2), padding=(1, 1), bias=False)
              (1): BatchNorm2d(16, eps=1e-05, momentum=0.1, affine=True, track_running_stats=True)
            )
            (1): ReLU(inplace)
          )
        )
      )
    )
    (1): MixedConvWithReLU(
      (ops): ModuleList(
        (0): QuantizedOp(
          (op): Sequential(
            (0): Sequential(
              (0): Conv2d(16, 32, kernel_size=(3, 3), stride=(2, 2), padding=(1, 1), bias=False)
              (1): BatchNorm2d(32, eps=1e-05, momentum=0.1, affine=True, track_running_stats=True)
            )
            (1): ReLU(inplace)
          )
        )
        (1): QuantizedOp(
          (op): Sequential(
            (0): Sequential(
              (0): Conv2d(16, 32, kernel_size=(3, 3), stride=(2, 2), padding=(1, 1), bias=False)
              (1): BatchNorm2d(32, eps=1e-05, momentum=0.1, affine=True, track_running_stats=True)
            )
            (1): ReLU(inplace)
          )
        )
      )
    )
    (2): MixedConvWithReLU(
      (ops): ModuleList(
        (0): QuantizedOp(
          (op): Sequential(
            (0): Sequential(
              (0): Conv2d(32, 64, kernel_size=(3, 3), stride=(2, 2), padding=(1, 1), bias=False)
              (1): BatchNorm2d(64, eps=1e-05, momentum=0.1, affine=True, track_running_stats=True)
            )
            (1): ReLU(inplace)
          )
        )
        (1): QuantizedOp(
          (op): Sequential(
            (0): Sequential(
              (0): Conv2d(32, 64, kernel_size=(3, 3), stride=(2, 2), padding=(1, 1), bias=False)
              (1): BatchNorm2d(64, eps=1e-05, momentum=0.1, affine=True, track_running_stats=True)
            )
            (1): ReLU(inplace)
          )
        )
      )
    )
    (3): MixedConvWithReLU(
      (ops): ModuleList(
        (0): QuantizedOp(
          (op): Sequential(
            (0): Sequential(
              (0): Conv2d(64, 128, kernel_size=(3, 3), stride=(2, 2), padding=(1, 1), bias=False)
              (1): BatchNorm2d(128, eps=1e-05, momentum=0.1, affine=True, track_running_stats=True)
            )
            (1): ReLU(inplace)
          )
        )
        (1): QuantizedOp(
          (op): Sequential(
            (0): Sequential(
              (0): Conv2d(64, 128, kernel_size=(3, 3), stride=(2, 2), padding=(1, 1), bias=False)
              (1): BatchNorm2d(128, eps=1e-05, momentum=0.1, affine=True, track_running_stats=True)
            )
            (1): ReLU(inplace)
          )
        )
      )
    )
  )
  (fc): MixedLinear(
    (ops): ModuleList(
      (0): QuantizedOp(
        (op): Linear(in_features=512, out_features=10, bias=True)
      )
      (1): QuantizedOp(
        (op): Linear(in_features=512, out_features=10, bias=True)
      )
    )
  )
  (_criterion): UniqLoss(
    (search_loss): CrossEntropyLoss()
    (bops_base_func): Tanh()
  )
)
2018-09-12 15:35:58,835 - INFO - =============================================
2018-09-12 15:35:58,836 - INFO - Top [2] quantizations per layer:
2018-09-12 15:35:58,836 - INFO - =============================================
2018-09-12 15:35:58,836 - INFO - Layer:[0]  Idx:[1]  w:[0.50000]  alpha:[0.50000]  bitwidth:[8]  act_bitwidth:[8]  ||  Idx:[0]  w:[0.50000]  alpha:[0.50000]  bitwidth:[2]  act_bitwidth:[2]  ||  
…
