2018-09-21 20:54:20,808 - INFO - ResNet(
  (block1): MixedConvWithReLU(
    (ops): ModuleList(
      (0): QuantizedOp(
        (op): Sequential(
          (0): Sequential(
            (0): Conv2d(3, 16, kernel_size=(3, 3), stride=(1, 1), padding=(1, 1), bias=False)
            (1): BatchNorm2d(16, eps=1e-05, momentum=0.1, affine=True, track_running_stats=True)
          )
          (1): ActQuant()
        )
      )
      (1): QuantizedOp(
        (op): Sequential(
          (0): Sequential(
            (0): Conv2d(3, 16, kernel_size=(3, 3), stride=(1, 1), padding=(1, 1), bias=False)
            (1): BatchNorm2d(16, eps=1e-05, momentum=0.1, affine=True, track_running_stats=True)
          )
          (1): ActQuant()
        )
      )
      (2): QuantizedOp(
        (op): Sequential(
          (0): Sequential(
            (0): Conv2d(3, 16, kernel_size=(3, 3), stride=(1, 1), padding=(1, 1), bias=False)
            (1): BatchNorm2d(16, eps=1e-05, momentum=0.1, affine=True, track_running_stats=True)
          )
          (1): ActQuant()
        )
      )
      (3): QuantizedOp(
        (op): Sequential(
          (0): Sequential(
            (0): Conv2d(3, 16, kernel_size=(3, 3), stride=(1, 1), padding=(1, 1), bias=False)
            (1): BatchNorm2d(16, eps=1e-05, momentum=0.1, affine=True, track_running_stats=True)
          )
          (1): ActQuant()
        )
      )
      (4): QuantizedOp(
        (op): Sequential(
          (0): Sequential(
            (0): Conv2d(3, 16, kernel_size=(3, 3), stride=(1, 1), padding=(1, 1), bias=False)
            (1): BatchNorm2d(16, eps=1e-05, momentum=0.1, affine=True, track_running_stats=True)
          )
          (1): ActQuant()
        )
      )
    )
  )
  (block2): BasicBlock(
    (block1): MixedConvWithReLU(
      (ops): ModuleList(
        (0): QuantizedOp(
          (op): Sequential(
            (0): Sequential(
              (0): Conv2d(16, 16, kernel_size=(3, 3), stride=(1, 1), padding=(1, 1), bias=False)
              (1): BatchNorm2d(16, eps=1e-05, momentum=0.1, affine=True, track_running_stats=True)
            )
            (1): ActQuant()
          )
        )
        (1): QuantizedOp(
          (op): Sequential(
            (0): Sequential(
              (0): Conv2d(16, 16, kernel_size=(3, 3), stride=(1, 1), padding=(1, 1), bias=False)
              (1): BatchNorm2d(16, eps=1e-05, momentum=0.1, affine=True, track_running_stats=True)
            )
            (1): ActQuant()
          )
        )
        (2): QuantizedOp(
          (op): Sequential(
            (0): Sequential(
              (0): Conv2d(16, 16, kernel_size=(3, 3), stride=(1, 1), padding=(1, 1), bias=False)
              (1): BatchNorm2d(16, eps=1e-05, momentum=0.1, affine=True, track_running_stats=True)
            )
            (1): ActQuant()
          )
        )
        (3): QuantizedOp(
          (op): Sequential(
            (0): Sequential(
              (0): Conv2d(16, 16, kernel_size=(3, 3), stride=(1, 1), padding=(1, 1), bias=False)
              (1): BatchNorm2d(16, eps=1e-05, momentum=0.1, affine=True, track_running_stats=True)
            )
            (1): ActQuant()
          )
        )
        (4): QuantizedOp(
          (op): Sequential(
            (0): Sequential(
              (0): Conv2d(16, 16, kernel_size=(3, 3), stride=(1, 1), padding=(1, 1), bias=False)
              (1): BatchNorm2d(16, eps=1e-05, momentum=0.1, affine=True, track_running_stats=True)
            )
            (1): ActQuant()
          )
        )
      )
    )
    (block2): MixedConvWithReLU(
      (ops): ModuleList(
        (0): QuantizedOp(
          (op): Sequential(
            (0): Sequential(
              (0): Conv2d(16, 16, kernel_size=(3, 3), stride=(1, 1), padding=(1, 1), bias=False)
              (1): BatchNorm2d(16, eps=1e-05, momentum=0.1, affine=True, track_running_stats=True)
            )
            (1): ActQuant()
          )
        )
        (1): QuantizedOp(
          (op): Sequential(
            (0): Sequential(
              (0): Conv2d(16, 16, kernel_size=(3, 3), stride=(1, 1), padding=(1, 1), bias=False)
              (1): BatchNorm2d(16, eps=1e-05, momentum=0.1, affine=True, track_running_stats=True)
            )
            (1): ActQuant()
          )
        )
        (2): QuantizedOp(
          (op): Sequential(
            (0): Sequential(
              (0): Conv2d(16, 16, kernel_size=(3, 3), stride=(1, 1), padding=(1, 1), bias=False)
              (1): BatchNorm2d(16, eps=1e-05, momentum=0.1, affine=True, track_running_stats=True)
            )
            (1): ActQuant()
          )
        )
        (3): QuantizedOp(
          (op): Sequential(
            (0): Sequential(
              (0): Conv2d(16, 16, kernel_size=(3, 3), stride=(1, 1), padding=(1, 1), bias=False)
              (1): BatchNorm2d(16, eps=1e-05, momentum=0.1, affine=True, track_running_stats=True)
            )
            (1): ActQuant()
          )
        )
        (4): QuantizedOp(
          (op): Sequential(
            (0): Sequential(
              (0): Conv2d(16, 16, kernel_size=(3, 3), stride=(1, 1), padding=(1, 1), bias=False)
              (1): BatchNorm2d(16, eps=1e-05, momentum=0.1, affine=True, track_running_stats=True)
            )
            (1): ActQuant()
          )
        )
      )
    )
  )
  (block3): BasicBlock(
    (block1): MixedConvWithReLU(
      (ops): ModuleList(
        (0): QuantizedOp(
          (op): Sequential(
            (0): Sequential(
              (0): Conv2d(16, 16, kernel_size=(3, 3), stride=(1, 1), padding=(1, 1), bias=False)
              (1): BatchNorm2d(16, eps=1e-05, momentum=0.1, affine=True, track_running_stats=True)
            )
            (1): ActQuant()
          )
        )
        (1): QuantizedOp(
          (op): Sequential(
            (0): Sequential(
              (0): Conv2d(16, 16, kernel_size=(3, 3), stride=(1, 1), padding=(1, 1), bias=False)
              (1): BatchNorm2d(16, eps=1e-05, momentum=0.1, affine=True, track_running_stats=True)
            )
            (1): ActQuant()
          )
        )
        (2): QuantizedOp(
          (op): Sequential(
            (0): Sequential(
              (0): Conv2d(16, 16, kernel_size=(3, 3), stride=(1, 1), padding=(1, 1), bias=False)
              (1): BatchNorm2d(16, eps=1e-05, momentum=0.1, affine=True, track_running_stats=True)
            )
            (1): ActQuant()
          )
        )
        (3): QuantizedOp(
          (op): Sequential(
            (0): Sequential(
              (0): Conv2d(16, 16, kernel_size=(3, 3), stride=(1, 1), padding=(1, 1), bias=False)
              (1): BatchNorm2d(16, eps=1e-05, momentum=0.1, affine=True, track_running_stats=True)
            )
            (1): ActQuant()
          )
        )
        (4): QuantizedOp(
          (op): Sequential(
            (0): Sequential(
              (0): Conv2d(16, 16, kernel_size=(3, 3), stride=(1, 1), padding=(1, 1), bias=False)
              (1): BatchNorm2d(16, eps=1e-05, momentum=0.1, affine=True, track_running_stats=True)
            )
            (1): ActQuant()
          )
        )
      )
    )
    (block2): MixedConvWithReLU(
      (ops): ModuleList(
        (0): QuantizedOp(
          (op): Sequential(
            (0): Sequential(
              (0): Conv2d(16, 16, kernel_size=(3, 3), stride=(1, 1), padding=(1, 1), bias=False)
              (1): BatchNorm2d(16, eps=1e-05, momentum=0.1, affine=True, track_running_stats=True)
            )
            (1): ActQuant()
          )
        )
        (1): QuantizedOp(
          (op): Sequential(
            (0): Sequential(
              (0): Conv2d(16, 16, kernel_size=(3, 3), stride=(1, 1), padding=(1, 1), bias=False)
              (1): BatchNorm2d(16, eps=1e-05, momentum=0.1, affine=True, track_running_stats=True)
            )
            (1): ActQuant()
          )
        )
        (2): QuantizedOp(
          (op): Sequential(
            (0): Sequential(
              (0): Conv2d(16, 16, kernel_size=(3, 3), stride=(1, 1), padding=(1, 1), bias=False)
              (1): BatchNorm2d(16, eps=1e-05, momentum=0.1, affine=True, track_running_stats=True)
            )
            (1): ActQuant()
          )
        )
        (3): QuantizedOp(
          (op): Sequential(
            (0): Sequential(
              (0): Conv2d(16, 16, kernel_size=(3, 3), stride=(1, 1), padding=(1, 1), bias=False)
              (1): BatchNorm2d(16, eps=1e-05, momentum=0.1, affine=True, track_running_stats=True)
            )
            (1): ActQuant()
          )
        )
        (4): QuantizedOp(
          (op): Sequential(
            (0): Sequential(
              (0): Conv2d(16, 16, kernel_size=(3, 3), stride=(1, 1), padding=(1, 1), bias=False)
              (1): BatchNorm2d(16, eps=1e-05, momentum=0.1, affine=True, track_running_stats=True)
            )
            (1): ActQuant()
          )
        )
      )
    )
  )
  (block4): BasicBlock(
    (block1): MixedConvWithReLU(
      (ops): ModuleList(
        (0): QuantizedOp(
          (op): Sequential(
            (0): Sequential(
              (0): Conv2d(16, 16, kernel_size=(3, 3), stride=(1, 1), padding=(1, 1), bias=False)
              (1): BatchNorm2d(16, eps=1e-05, momentum=0.1, affine=True, track_running_stats=True)
            )
            (1): ActQuant()
          )
        )
        (1): QuantizedOp(
          (op): Sequential(
            (0): Sequential(
              (0): Conv2d(16, 16, kernel_size=(3, 3), stride=(1, 1), padding=(1, 1), bias=False)
              (1): BatchNorm2d(16, eps=1e-05, momentum=0.1, affine=True, track_running_stats=True)
            )
            (1): ActQuant()
          )
        )
        (2): QuantizedOp(
          (op): Sequential(
            (0): Sequential(
              (0): Conv2d(16, 16, kernel_size=(3, 3), stride=(1, 1), padding=(1, 1), bias=False)
              (1): BatchNorm2d(16, eps=1e-05, momentum=0.1, affine=True, track_running_stats=True)
            )
            (1): ActQuant()
          )
        )
        (3): QuantizedOp(
          (op): Sequential(
            (0): Sequential(
              (0): Conv2d(16, 16, kernel_size=(3, 3), stride=(1, 1), padding=(1, 1), bias=False)
              (1): BatchNorm2d(16, eps=1e-05, momentum=0.1, affine=True, track_running_stats=True)
            )
            (1): ActQuant()
          )
        )
        (4): QuantizedOp(
          (op): Sequential(
            (0): Sequential(
              (0): Conv2d(16, 16, kernel_size=(3, 3), stride=(1, 1), padding=(1, 1), bias=False)
              (1): BatchNorm2d(16, eps=1e-05, momentum=0.1, affine=True, track_running_stats=True)
            )
            (1): ActQuant()
          )
        )
      )
    )
    (block2): MixedConvWithReLU(
      (ops): ModuleList(
        (0): QuantizedOp(
          (op): Sequential(
            (0): Sequential(
              (0): Conv2d(16, 16, kernel_size=(3, 3), stride=(1, 1), padding=(1, 1), bias=False)
              (1): BatchNorm2d(16, eps=1e-05, momentum=0.1, affine=True, track_running_stats=True)
            )
            (1): ActQuant()
          )
        )
        (1): QuantizedOp(
          (op): Sequential(
            (0): Sequential(
              (0): Conv2d(16, 16, kernel_size=(3, 3), stride=(1, 1), padding=(1, 1), bias=False)
              (1): BatchNorm2d(16, eps=1e-05, momentum=0.1, affine=True, track_running_stats=True)
            )
            (1): ActQuant()
          )
        )
        (2): QuantizedOp(
          (op): Sequential(
            (0): Sequential(
              (0): Conv2d(16, 16, kernel_size=(3, 3), stride=(1, 1), padding=(1, 1), bias=False)
              (1): BatchNorm2d(16, eps=1e-05, momentum=0.1, affine=True, track_running_stats=True)
            )
            (1): ActQuant()
          )
        )
        (3): QuantizedOp(
          (op): Sequential(
            (0): Sequential(
              (0): Conv2d(16, 16, kernel_size=(3, 3), stride=(1, 1), padding=(1, 1), bias=False)
              (1): BatchNorm2d(16, eps=1e-05, momentum=0.1, affine=True, track_running_stats=True)
            )
            (1): ActQuant()
          )
        )
        (4): QuantizedOp(
          (op): Sequential(
            (0): Sequential(
              (0): Conv2d(16, 16, kernel_size=(3, 3), stride=(1, 1), padding=(1, 1), bias=False)
              (1): BatchNorm2d(16, eps=1e-05, momentum=0.1, affine=True, track_running_stats=True)
            )
            (1): ActQuant()
          )
        )
      )
    )
  )
  (block5): BasicBlock(
    (block1): MixedConvWithReLU(
      (ops): ModuleList(
        (0): QuantizedOp(
          (op): Sequential(
            (0): Sequential(
              (0): Conv2d(16, 32, kernel_size=(3, 3), stride=(2, 2), padding=(1, 1), bias=False)
              (1): BatchNorm2d(32, eps=1e-05, momentum=0.1, affine=True, track_running_stats=True)
            )
            (1): ActQuant()
          )
        )
        (1): QuantizedOp(
          (op): Sequential(
            (0): Sequential(
              (0): Conv2d(16, 32, kernel_size=(3, 3), stride=(2, 2), padding=(1, 1), bias=False)
              (1): BatchNorm2d(32, eps=1e-05, momentum=0.1, affine=True, track_running_stats=True)
            )
            (1): ActQuant()
          )
        )
        (2): QuantizedOp(
          (op): Sequential(
            (0): Sequential(
              (0): Conv2d(16, 32, kernel_size=(3, 3), stride=(2, 2), padding=(1, 1), bias=False)
              (1): BatchNorm2d(32, eps=1e-05, momentum=0.1, affine=True, track_running_stats=True)
            )
            (1): ActQuant()
          )
        )
        (3): QuantizedOp(
          (op): Sequential(
            (0): Sequential(
              (0): Conv2d(16, 32, kernel_size=(3, 3), stride=(2, 2), padding=(1, 1), bias=False)
              (1): BatchNorm2d(32, eps=1e-05, momentum=0.1, affine=True, track_running_stats=True)
            )
            (1): ActQuant()
          )
        )
        (4): QuantizedOp(
          (op): Sequential(
            (0): Sequential(
              (0): Conv2d(16, 32, kernel_size=(3, 3), stride=(2, 2), padding=(1, 1), bias=False)
              (1): BatchNorm2d(32, eps=1e-05, momentum=0.1, affine=True, track_running_stats=True)
            )
            (1): ActQuant()
          )
        )
      )
    )
    (block2): MixedConvWithReLU(
      (ops): ModuleList(
        (0): QuantizedOp(
          (op): Sequential(
            (0): Sequential(
              (0): Conv2d(32, 32, kernel_size=(3, 3), stride=(1, 1), padding=(1, 1), bias=False)
              (1): BatchNorm2d(32, eps=1e-05, momentum=0.1, affine=True, track_running_stats=True)
            )
            (1): ActQuant()
          )
        )
        (1): QuantizedOp(
          (op): Sequential(
            (0): Sequential(
              (0): Conv2d(32, 32, kernel_size=(3, 3), stride=(1, 1), padding=(1, 1), bias=False)
              (1): BatchNorm2d(32, eps=1e-05, momentum=0.1, affine=True, track_running_stats=True)
            )
            (1): ActQuant()
          )
        )
        (2): QuantizedOp(
          (op): Sequential(
            (0): Sequential(
              (0): Conv2d(32, 32, kernel_size=(3, 3), stride=(1, 1), padding=(1, 1), bias=False)
              (1): BatchNorm2d(32, eps=1e-05, momentum=0.1, affine=True, track_running_stats=True)
            )
            (1): ActQuant()
          )
        )
        (3): QuantizedOp(
          (op): Sequential(
            (0): Sequential(
              (0): Conv2d(32, 32, kernel_size=(3, 3), stride=(1, 1), padding=(1, 1), bias=False)
              (1): BatchNorm2d(32, eps=1e-05, momentum=0.1, affine=True, track_running_stats=True)
            )
            (1): ActQuant()
          )
        )
        (4): QuantizedOp(
          (op): Sequential(
            (0): Sequential(
              (0): Conv2d(32, 32, kernel_size=(3, 3), stride=(1, 1), padding=(1, 1), bias=False)
              (1): BatchNorm2d(32, eps=1e-05, momentum=0.1, affine=True, track_running_stats=True)
            )
            (1): ActQuant()
          )
        )
      )
    )
    (downsample): MixedConv(
      (ops): ModuleList(
        (0): QuantizedOp(
          (op): Sequential(
            (0): Conv2d(16, 32, kernel_size=(1, 1), stride=(2, 2), bias=False)
            (1): BatchNorm2d(32, eps=1e-05, momentum=0.1, affine=True, track_running_stats=True)
          )
        )
        (1): QuantizedOp(
          (op): Sequential(
            (0): Conv2d(16, 32, kernel_size=(1, 1), stride=(2, 2), bias=False)
            (1): BatchNorm2d(32, eps=1e-05, momentum=0.1, affine=True, track_running_stats=True)
          )
        )
        (2): QuantizedOp(
          (op): Sequential(
            (0): Conv2d(16, 32, kernel_size=(1, 1), stride=(2, 2), bias=False)
            (1): BatchNorm2d(32, eps=1e-05, momentum=0.1, affine=True, track_running_stats=True)
          )
        )
        (3): QuantizedOp(
          (op): Sequential(
            (0): Conv2d(16, 32, kernel_size=(1, 1), stride=(2, 2), bias=False)
            (1): BatchNorm2d(32, eps=1e-05, momentum=0.1, affine=True, track_running_stats=True)
          )
        )
        (4): QuantizedOp(
          (op): Sequential(
            (0): Conv2d(16, 32, kernel_size=(1, 1), stride=(2, 2), bias=False)
            (1): BatchNorm2d(32, eps=1e-05, momentum=0.1, affine=True, track_running_stats=True)
          )
        )
      )
    )
  )
  (block6): BasicBlock(
    (block1): MixedConvWithReLU(
      (ops): ModuleList(
        (0): QuantizedOp(
          (op): Sequential(
            (0): Sequential(
              (0): Conv2d(32, 32, kernel_size=(3, 3), stride=(1, 1), padding=(1, 1), bias=False)
              (1): BatchNorm2d(32, eps=1e-05, momentum=0.1, affine=True, track_running_stats=True)
            )
            (1): ActQuant()
          )
        )
        (1): QuantizedOp(
          (op): Sequential(
            (0): Sequential(
              (0): Conv2d(32, 32, kernel_size=(3, 3), stride=(1, 1), padding=(1, 1), bias=False)
              (1): BatchNorm2d(32, eps=1e-05, momentum=0.1, affine=True, track_running_stats=True)
            )
            (1): ActQuant()
          )
        )
        (2): QuantizedOp(
          (op): Sequential(
            (0): Sequential(
              (0): Conv2d(32, 32, kernel_size=(3, 3), stride=(1, 1), padding=(1, 1), bias=False)
              (1): BatchNorm2d(32, eps=1e-05, momentum=0.1, affine=True, track_running_stats=True)
            )
            (1): ActQuant()
          )
        )
        (3): QuantizedOp(
          (op): Sequential(
            (0): Sequential(
              (0): Conv2d(32, 32, kernel_size=(3, 3), stride=(1, 1), padding=(1, 1), bias=False)
              (1): BatchNorm2d(32, eps=1e-05, momentum=0.1, affine=True, track_running_stats=True)
            )
            (1): ActQuant()
          )
        )
        (4): QuantizedOp(
          (op): Sequential(
            (0): Sequential(
              (0): Conv2d(32, 32, kernel_size=(3, 3), stride=(1, 1), padding=(1, 1), bias=False)
              (1): BatchNorm2d(32, eps=1e-05, momentum=0.1, affine=True, track_running_stats=True)
            )
            (1): ActQuant()
          )
        )
      )
    )
    (block2): MixedConvWithReLU(
      (ops): ModuleList(
        (0): QuantizedOp(
          (op): Sequential(
            (0): Sequential(
              (0): Conv2d(32, 32, kernel_size=(3, 3), stride=(1, 1), padding=(1, 1), bias=False)
              (1): BatchNorm2d(32, eps=1e-05, momentum=0.1, affine=True, track_running_stats=True)
            )
            (1): ActQuant()
          )
        )
        (1): QuantizedOp(
          (op): Sequential(
            (0): Sequential(
              (0): Conv2d(32, 32, kernel_size=(3, 3), stride=(1, 1), padding=(1, 1), bias=False)
              (1): BatchNorm2d(32, eps=1e-05, momentum=0.1, affine=True, track_running_stats=True)
            )
            (1): ActQuant()
          )
        )
        (2): QuantizedOp(
          (op): Sequential(
            (0): Sequential(
              (0): Conv2d(32, 32, kernel_size=(3, 3), stride=(1, 1), padding=(1, 1), bias=False)
              (1): BatchNorm2d(32, eps=1e-05, momentum=0.1, affine=True, track_running_stats=True)
            )
            (1): ActQuant()
          )
        )
        (3): QuantizedOp(
          (op): Sequential(
            (0): Sequential(
              (0): Conv2d(32, 32, kernel_size=(3, 3), stride=(1, 1), padding=(1, 1), bias=False)
              (1): BatchNorm2d(32, eps=1e-05, momentum=0.1, affine=True, track_running_stats=True)
            )
            (1): ActQuant()
          )
        )
        (4): QuantizedOp(
          (op): Sequential(
            (0): Sequential(
              (0): Conv2d(32, 32, kernel_size=(3, 3), stride=(1, 1), padding=(1, 1), bias=False)
              (1): BatchNorm2d(32, eps=1e-05, momentum=0.1, affine=True, track_running_stats=True)
            )
            (1): ActQuant()
          )
        )
      )
    )
  )
  (block7): BasicBlock(
    (block1): MixedConvWithReLU(
      (ops): ModuleList(
        (0): QuantizedOp(
          (op): Sequential(
            (0): Sequential(
              (0): Conv2d(32, 32, kernel_size=(3, 3), stride=(1, 1), padding=(1, 1), bias=False)
              (1): BatchNorm2d(32, eps=1e-05, momentum=0.1, affine=True, track_running_stats=True)
            )
            (1): ActQuant()
          )
        )
        (1): QuantizedOp(
          (op): Sequential(
            (0): Sequential(
              (0): Conv2d(32, 32, kernel_size=(3, 3), stride=(1, 1), padding=(1, 1), bias=False)
              (1): BatchNorm2d(32, eps=1e-05, momentum=0.1, affine=True, track_running_stats=True)
            )
            (1): ActQuant()
          )
        )
        (2): QuantizedOp(
          (op): Sequential(
            (0): Sequential(
              (0): Conv2d(32, 32, kernel_size=(3, 3), stride=(1, 1), padding=(1, 1), bias=False)
              (1): BatchNorm2d(32, eps=1e-05, momentum=0.1, affine=True, track_running_stats=True)
            )
            (1): ActQuant()
          )
        )
        (3): QuantizedOp(
          (op): Sequential(
            (0): Sequential(
              (0): Conv2d(32, 32, kernel_size=(3, 3), stride=(1, 1), padding=(1, 1), bias=False)
              (1): BatchNorm2d(32, eps=1e-05, momentum=0.1, affine=True, track_running_stats=True)
            )
            (1): ActQuant()
          )
        )
        (4): QuantizedOp(
          (op): Sequential(
            (0): Sequential(
              (0): Conv2d(32, 32, kernel_size=(3, 3), stride=(1, 1), padding=(1, 1), bias=False)
              (1): BatchNorm2d(32, eps=1e-05, momentum=0.1, affine=True, track_running_stats=True)
            )
            (1): ActQuant()
          )
        )
      )
    )
    (block2): MixedConvWithReLU(
      (ops): ModuleList(
        (0): QuantizedOp(
          (op): Sequential(
            (0): Sequential(
              (0): Conv2d(32, 32, kernel_size=(3, 3), stride=(1, 1), padding=(1, 1), bias=False)
              (1): BatchNorm2d(32, eps=1e-05, momentum=0.1, affine=True, track_running_stats=True)
            )
            (1): ActQuant()
          )
        )
        (1): QuantizedOp(
          (op): Sequential(
            (0): Sequential(
              (0): Conv2d(32, 32, kernel_size=(3, 3), stride=(1, 1), padding=(1, 1), bias=False)
              (1): BatchNorm2d(32, eps=1e-05, momentum=0.1, affine=True, track_running_stats=True)
            )
            (1): ActQuant()
          )
        )
        (2): QuantizedOp(
          (op): Sequential(
            (0): Sequential(
              (0): Conv2d(32, 32, kernel_size=(3, 3), stride=(1, 1), padding=(1, 1), bias=False)
              (1): BatchNorm2d(32, eps=1e-05, momentum=0.1, affine=True, track_running_stats=True)
            )
            (1): ActQuant()
          )
        )
        (3): QuantizedOp(
          (op): Sequential(
            (0): Sequential(
              (0): Conv2d(32, 32, kernel_size=(3, 3), stride=(1, 1), padding=(1, 1), bias=False)
              (1): BatchNorm2d(32, eps=1e-05, momentum=0.1, affine=True, track_running_stats=True)
            )
            (1): ActQuant()
          )
        )
        (4): QuantizedOp(
          (op): Sequential(
            (0): Sequential(
              (0): Conv2d(32, 32, kernel_size=(3, 3), stride=(1, 1), padding=(1, 1), bias=False)
              (1): BatchNorm2d(32, eps=1e-05, momentum=0.1, affine=True, track_running_stats=True)
            )
            (1): ActQuant()
          )
        )
      )
    )
  )
  (block8): BasicBlock(
    (block1): MixedConvWithReLU(
      (ops): ModuleList(
        (0): QuantizedOp(
          (op): Sequential(
            (0): Sequential(
              (0): Conv2d(32, 64, kernel_size=(3, 3), stride=(2, 2), padding=(1, 1), bias=False)
              (1): BatchNorm2d(64, eps=1e-05, momentum=0.1, affine=True, track_running_stats=True)
            )
            (1): ActQuant()
          )
        )
        (1): QuantizedOp(
          (op): Sequential(
            (0): Sequential(
              (0): Conv2d(32, 64, kernel_size=(3, 3), stride=(2, 2), padding=(1, 1), bias=False)
              (1): BatchNorm2d(64, eps=1e-05, momentum=0.1, affine=True, track_running_stats=True)
            )
            (1): ActQuant()
          )
        )
        (2): QuantizedOp(
          (op): Sequential(
            (0): Sequential(
              (0): Conv2d(32, 64, kernel_size=(3, 3), stride=(2, 2), padding=(1, 1), bias=False)
              (1): BatchNorm2d(64, eps=1e-05, momentum=0.1, affine=True, track_running_stats=True)
            )
            (1): ActQuant()
          )
        )
        (3): QuantizedOp(
          (op): Sequential(
            (0): Sequential(
              (0): Conv2d(32, 64, kernel_size=(3, 3), stride=(2, 2), padding=(1, 1), bias=False)
              (1): BatchNorm2d(64, eps=1e-05, momentum=0.1, affine=True, track_running_stats=True)
            )
            (1): ActQuant()
          )
        )
        (4): QuantizedOp(
          (op): Sequential(
            (0): Sequential(
              (0): Conv2d(32, 64, kernel_size=(3, 3), stride=(2, 2), padding=(1, 1), bias=False)
              (1): BatchNorm2d(64, eps=1e-05, momentum=0.1, affine=True, track_running_stats=True)
            )
            (1): ActQuant()
          )
        )
      )
    )
    (block2): MixedConvWithReLU(
      (ops): ModuleList(
        (0): QuantizedOp(
          (op): Sequential(
            (0): Sequential(
              (0): Conv2d(64, 64, kernel_size=(3, 3), stride=(1, 1), padding=(1, 1), bias=False)
              (1): BatchNorm2d(64, eps=1e-05, momentum=0.1, affine=True, track_running_stats=True)
            )
            (1): ActQuant()
          )
        )
        (1): QuantizedOp(
          (op): Sequential(
            (0): Sequential(
              (0): Conv2d(64, 64, kernel_size=(3, 3), stride=(1, 1), padding=(1, 1), bias=False)
              (1): BatchNorm2d(64, eps=1e-05, momentum=0.1, affine=True, track_running_stats=True)
            )
            (1): ActQuant()
          )
        )
        (2): QuantizedOp(
          (op): Sequential(
            (0): Sequential(
              (0): Conv2d(64, 64, kernel_size=(3, 3), stride=(1, 1), padding=(1, 1), bias=False)
              (1): BatchNorm2d(64, eps=1e-05, momentum=0.1, affine=True, track_running_stats=True)
            )
            (1): ActQuant()
          )
        )
        (3): QuantizedOp(
          (op): Sequential(
            (0): Sequential(
              (0): Conv2d(64, 64, kernel_size=(3, 3), stride=(1, 1), padding=(1, 1), bias=False)
              (1): BatchNorm2d(64, eps=1e-05, momentum=0.1, affine=True, track_running_stats=True)
            )
            (1): ActQuant()
          )
        )
        (4): QuantizedOp(
          (op): Sequential(
            (0): Sequential(
              (0): Conv2d(64, 64, kernel_size=(3, 3), stride=(1, 1), padding=(1, 1), bias=False)
              (1): BatchNorm2d(64, eps=1e-05, momentum=0.1, affine=True, track_running_stats=True)
            )
            (1): ActQuant()
          )
        )
      )
    )
    (downsample): MixedConv(
      (ops): ModuleList(
        (0): QuantizedOp(
          (op): Sequential(
            (0): Conv2d(32, 64, kernel_size=(1, 1), stride=(2, 2), bias=False)
            (1): BatchNorm2d(64, eps=1e-05, momentum=0.1, affine=True, track_running_stats=True)
          )
        )
        (1): QuantizedOp(
          (op): Sequential(
            (0): Conv2d(32, 64, kernel_size=(1, 1), stride=(2, 2), bias=False)
            (1): BatchNorm2d(64, eps=1e-05, momentum=0.1, affine=True, track_running_stats=True)
          )
        )
        (2): QuantizedOp(
          (op): Sequential(
            (0): Conv2d(32, 64, kernel_size=(1, 1), stride=(2, 2), bias=False)
            (1): BatchNorm2d(64, eps=1e-05, momentum=0.1, affine=True, track_running_stats=True)
          )
        )
        (3): QuantizedOp(
          (op): Sequential(
            (0): Conv2d(32, 64, kernel_size=(1, 1), stride=(2, 2), bias=False)
            (1): BatchNorm2d(64, eps=1e-05, momentum=0.1, affine=True, track_running_stats=True)
          )
        )
        (4): QuantizedOp(
          (op): Sequential(
            (0): Conv2d(32, 64, kernel_size=(1, 1), stride=(2, 2), bias=False)
            (1): BatchNorm2d(64, eps=1e-05, momentum=0.1, affine=True, track_running_stats=True)
          )
        )
      )
    )
  )
  (block9): BasicBlock(
    (block1): MixedConvWithReLU(
      (ops): ModuleList(
        (0): QuantizedOp(
          (op): Sequential(
            (0): Sequential(
              (0): Conv2d(64, 64, kernel_size=(3, 3), stride=(1, 1), padding=(1, 1), bias=False)
              (1): BatchNorm2d(64, eps=1e-05, momentum=0.1, affine=True, track_running_stats=True)
            )
            (1): ActQuant()
          )
        )
        (1): QuantizedOp(
          (op): Sequential(
            (0): Sequential(
              (0): Conv2d(64, 64, kernel_size=(3, 3), stride=(1, 1), padding=(1, 1), bias=False)
              (1): BatchNorm2d(64, eps=1e-05, momentum=0.1, affine=True, track_running_stats=True)
            )
            (1): ActQuant()
          )
        )
        (2): QuantizedOp(
          (op): Sequential(
            (0): Sequential(
              (0): Conv2d(64, 64, kernel_size=(3, 3), stride=(1, 1), padding=(1, 1), bias=False)
              (1): BatchNorm2d(64, eps=1e-05, momentum=0.1, affine=True, track_running_stats=True)
            )
            (1): ActQuant()
          )
        )
        (3): QuantizedOp(
          (op): Sequential(
            (0): Sequential(
              (0): Conv2d(64, 64, kernel_size=(3, 3), stride=(1, 1), padding=(1, 1), bias=False)
              (1): BatchNorm2d(64, eps=1e-05, momentum=0.1, affine=True, track_running_stats=True)
            )
            (1): ActQuant()
          )
        )
        (4): QuantizedOp(
          (op): Sequential(
            (0): Sequential(
              (0): Conv2d(64, 64, kernel_size=(3, 3), stride=(1, 1), padding=(1, 1), bias=False)
              (1): BatchNorm2d(64, eps=1e-05, momentum=0.1, affine=True, track_running_stats=True)
            )
            (1): ActQuant()
          )
        )
      )
    )
    (block2): MixedConvWithReLU(
      (ops): ModuleList(
        (0): QuantizedOp(
          (op): Sequential(
            (0): Sequential(
              (0): Conv2d(64, 64, kernel_size=(3, 3), stride=(1, 1), padding=(1, 1), bias=False)
              (1): BatchNorm2d(64, eps=1e-05, momentum=0.1, affine=True, track_running_stats=True)
            )
            (1): ActQuant()
          )
        )
        (1): QuantizedOp(
          (op): Sequential(
            (0): Sequential(
              (0): Conv2d(64, 64, kernel_size=(3, 3), stride=(1, 1), padding=(1, 1), bias=False)
              (1): BatchNorm2d(64, eps=1e-05, momentum=0.1, affine=True, track_running_stats=True)
            )
            (1): ActQuant()
          )
        )
        (2): QuantizedOp(
          (op): Sequential(
            (0): Sequential(
              (0): Conv2d(64, 64, kernel_size=(3, 3), stride=(1, 1), padding=(1, 1), bias=False)
              (1): BatchNorm2d(64, eps=1e-05, momentum=0.1, affine=True, track_running_stats=True)
            )
            (1): ActQuant()
          )
        )
        (3): QuantizedOp(
          (op): Sequential(
            (0): Sequential(
              (0): Conv2d(64, 64, kernel_size=(3, 3), stride=(1, 1), padding=(1, 1), bias=False)
              (1): BatchNorm2d(64, eps=1e-05, momentum=0.1, affine=True, track_running_stats=True)
            )
            (1): ActQuant()
          )
        )
        (4): QuantizedOp(
          (op): Sequential(
            (0): Sequential(
              (0): Conv2d(64, 64, kernel_size=(3, 3), stride=(1, 1), padding=(1, 1), bias=False)
              (1): BatchNorm2d(64, eps=1e-05, momentum=0.1, affine=True, track_running_stats=True)
            )
            (1): ActQuant()
          )
        )
      )
    )
  )
  (block10): BasicBlock(
    (block1): MixedConvWithReLU(
      (ops): ModuleList(
        (0): QuantizedOp(
          (op): Sequential(
            (0): Sequential(
              (0): Conv2d(64, 64, kernel_size=(3, 3), stride=(1, 1), padding=(1, 1), bias=False)
              (1): BatchNorm2d(64, eps=1e-05, momentum=0.1, affine=True, track_running_stats=True)
            )
            (1): ActQuant()
          )
        )
        (1): QuantizedOp(
          (op): Sequential(
            (0): Sequential(
              (0): Conv2d(64, 64, kernel_size=(3, 3), stride=(1, 1), padding=(1, 1), bias=False)
              (1): BatchNorm2d(64, eps=1e-05, momentum=0.1, affine=True, track_running_stats=True)
            )
            (1): ActQuant()
          )
        )
        (2): QuantizedOp(
          (op): Sequential(
            (0): Sequential(
              (0): Conv2d(64, 64, kernel_size=(3, 3), stride=(1, 1), padding=(1, 1), bias=False)
              (1): BatchNorm2d(64, eps=1e-05, momentum=0.1, affine=True, track_running_stats=True)
            )
            (1): ActQuant()
          )
        )
        (3): QuantizedOp(
          (op): Sequential(
            (0): Sequential(
              (0): Conv2d(64, 64, kernel_size=(3, 3), stride=(1, 1), padding=(1, 1), bias=False)
              (1): BatchNorm2d(64, eps=1e-05, momentum=0.1, affine=True, track_running_stats=True)
            )
            (1): ActQuant()
          )
        )
        (4): QuantizedOp(
          (op): Sequential(
            (0): Sequential(
              (0): Conv2d(64, 64, kernel_size=(3, 3), stride=(1, 1), padding=(1, 1), bias=False)
              (1): BatchNorm2d(64, eps=1e-05, momentum=0.1, affine=True, track_running_stats=True)
            )
            (1): ActQuant()
          )
        )
      )
    )
    (block2): MixedConvWithReLU(
      (ops): ModuleList(
        (0): QuantizedOp(
          (op): Sequential(
            (0): Sequential(
              (0): Conv2d(64, 64, kernel_size=(3, 3), stride=(1, 1), padding=(1, 1), bias=False)
              (1): BatchNorm2d(64, eps=1e-05, momentum=0.1, affine=True, track_running_stats=True)
            )
            (1): ActQuant()
          )
        )
        (1): QuantizedOp(
          (op): Sequential(
            (0): Sequential(
              (0): Conv2d(64, 64, kernel_size=(3, 3), stride=(1, 1), padding=(1, 1), bias=False)
              (1): BatchNorm2d(64, eps=1e-05, momentum=0.1, affine=True, track_running_stats=True)
            )
            (1): ActQuant()
          )
        )
        (2): QuantizedOp(
          (op): Sequential(
            (0): Sequential(
              (0): Conv2d(64, 64, kernel_size=(3, 3), stride=(1, 1), padding=(1, 1), bias=False)
              (1): BatchNorm2d(64, eps=1e-05, momentum=0.1, affine=True, track_running_stats=True)
            )
            (1): ActQuant()
          )
        )
        (3): QuantizedOp(
          (op): Sequential(
            (0): Sequential(
              (0): Conv2d(64, 64, kernel_size=(3, 3), stride=(1, 1), padding=(1, 1), bias=False)
              (1): BatchNorm2d(64, eps=1e-05, momentum=0.1, affine=True, track_running_stats=True)
            )
            (1): ActQuant()
          )
        )
        (4): QuantizedOp(
          (op): Sequential(
            (0): Sequential(
              (0): Conv2d(64, 64, kernel_size=(3, 3), stride=(1, 1), padding=(1, 1), bias=False)
              (1): BatchNorm2d(64, eps=1e-05, momentum=0.1, affine=True, track_running_stats=True)
            )
            (1): ActQuant()
          )
        )
      )
    )
  )
  (avgpool): AvgPool2d(kernel_size=8, stride=8, padding=0)
  (fc): Linear(in_features=64, out_features=10, bias=True)
  (_criterion): UniqLoss(
    (search_loss): CrossEntropyLoss()
  )
)
2018-09-21 20:54:20,815 - INFO - =============================================
2018-09-21 20:54:20,815 - INFO - Top [2] quantizations per layer:
2018-09-21 20:54:20,816 - INFO - =============================================
2018-09-21 20:54:20,816 - INFO - Layer:[0]  Idx:[1]  w:[0.20000]  alpha:[0.20000]  bitwidth:[2]  act_bitwidth:[2]  ||  Idx:[0]  w:[0.20000]  alpha:[0.20000]  bitwidth:[1]  act_bitwidth:[1]  ||  
…
